q-learning/saves/qnet.pt (torch, 3023 bytes, 4 tensors)

weight f4 [20, 4]
000000 59 af 8e be 28 01 df bf b5 9f 48 c1 a5 94 33 c0
       -0.27868155 -1.7422228 -12.538991 -2.8059475
000010 ef a1 9a 3f e8 be 46 c0 12 eb 00 41 8e 1d 4e bf
       1.2080668 -3.105402 8.05739 -0.80513847
000020 03 b9 86 be 6f 29 97 bf b5 ea 1e c0 f6 06 01 bf
       -0.26313028 -1.180952 -2.4830754 -0.50401247
000030 7b ad e7 bf da 91 93 bf 08 63 3e c1 63 ad 1c c0
       -1.8099817 -1.1528885 -11.899178 -2.4480827
000040 b6 e2 11 3f 40 3e 4c bf b4 34 d3 c0 8a 5e ce bf
       0.5698656 -0.79782486 -6.6001835 -1.6122601
000050 88 06 2c c0 d8 ae e4 bf b5 d8 e5 c0 0c 58 a7 3f
       -2.6878986 -1.7865858 -7.1827035 1.3073745
000060 c6 06 25 3f 38 8c 22 c0 7c 63 c2 c0 19 f7 87 40
       0.6446346 -2.5398083 -6.074644 4.2489133
000070 99 79 1d bf 5e 76 90 bf a1 90 d5 3d 80 0c b8 3f
       -0.6151367 -1.1286123 0.104279764 1.4378815
000080 b1 3f 71 be a4 3e 1d 40 8d 61 f4 3f 06 9b 81 3f
       -0.23559453 2.4569483 1.909227 1.0125434
000090 cf 2c 81 3f d5 d6 9e bd 56 0f 03 41 14 07 02 40
       1.00918 -0.0775582 8.191244 2.031682
0000a0 96 e1 a2 bf 15 51 79 bf cb 05 6f c1 0b 0a 19 c0
       -1.2725093 -0.97389346 -14.938914 -2.391238
0000b0 2b de 77 c0 ea 3d 21 40 d4 2a e0 40 b8 dc 53 40
       -3.872935 2.519404 7.005228 3.3103466
0000c0 a0 1a 58 3f df 40 23 c0 50 47 42 c1 ff 5b ee 3f
       0.84415627 -2.5508344 -12.14241 1.8621825
0000d0 0b d4 e2 3f 76 c1 40 c0 b3 79 20 c0 e0 9a 5c 3f
       1.772096 -3.011808 -2.507428 0.8617382
0000e0 d5 77 18 c0 77 5c de be d8 3c 22 41 2c 6d 5c 3f
       -2.382314 -0.4342992 10.139854 0.86104083
0000f0 c8 f3 b5 3f 14 ba ac c0 f6 d1 9a c1 76 b6 ae c0
       1.4215021 -5.3977146 -19.35252 -5.459773
000100 64 eb 93 c0 49 58 e6 3f 80 df 69 bf 55 f8 25 3f
       -4.622484 1.7995692 -0.9135666 0.6483205
000110 fe 58 89 bf 45 7a 77 bf bd f2 64 c1 e8 7c 11 c0
       -1.0730283 -0.96670943 -14.309262 -2.2732487
000120 7a da 9a c0 fb cc 38 3f 83 11 51 bf 5d 61 5c 3f
       -4.8391695 0.72187775 -0.81667346 0.86086065
000130 93 0b 2c 3f 6d b3 d6 3e e1 95 34 3f 89 63 c2 3f
       0.6720516 0.41933766 0.705412 1.5186626

bias f4 [20]
000000 72 4a d7 40 b5 7c 94 40 c5 cb 11 bf 4b db f3 40
       6.7278376 4.640223 -0.5695155 7.620519
000010 49 80 3e 40 5b 3f db 40 78 33 42 40 d5 c6 4f 3f
       2.97658 6.851484 3.0343914 0.8116277
000020 bb f0 a6 40 57 7e c8 40 c7 96 dc 40 01 c2 88 40
       5.216886 6.2654223 6.8934054 4.273682
000030 b9 d7 32 3f f2 97 ae be 16 cd a3 40 d1 37 fa 40
       0.69860417 -0.341003 5.118785 7.8193135
000040 35 1a f3 40 20 9c e5 40 d9 46 1d 41 af 45 97 3f
       7.596949 7.175308 9.829797 1.1818141

weight f4 [2, 20]
000000 bb b2 13 3f 4f c3 5a bf 84 b8 91 bf 51 11 ac 3f
       0.57694596 -0.8545427 -1.1384435 1.3442785
000010 4e cf cf 3f ce 8a 0b bf 05 9c 2b 3e e8 40 2a bf
       1.6235139 -0.54508674 0.16758735 -0.6650529
000020 ed 28 63 3f 2e 7d ae 3f fa a7 41 40 39 cd 8c 3f
       0.8873432 1.3631952 3.0258775 1.1000129
000030 ca 95 f9 3d 59 d4 a2 3e 45 33 80 40 19 28 6c 3f
       0.12186773 0.31802633 4.0062585 0.92248684
000040 40 50 b5 3f 80 03 06 40 13 d8 30 40 1d 05 73 3f
       1.4165115 2.0939636 2.7631881 0.9492968
000050 31 0a f9 3e e9 fa cb be dd 9c 08 c0 77 b1 af 3f
       0.48640588 -0.39839867 -2.1345742 1.3726033
000060 73 8b b6 3e 7e ee 5a be 2c 21 da bd ed 01 89 be
       0.35653266 -0.2138004 -0.10650858 -0.26759282
000070 5f 9b 2d 3f 67 d2 a5 3f cc 45 2a 40 9f 35 3f 40
       0.678152 1.2954835 2.66051 2.9876478
000080 83 21 77 be a0 d8 20 3f f8 9e 86 40 6b 0b 20 3d
       -0.24133877 0.62830544 4.2069054 0.03907339
000090 83 9d 1b 3f e6 34 1b 40 c9 b1 25 40 df 66 c2 3f
       0.6078722 2.4251037 2.5889761 1.5187644

bias f4 [2]
000000 e3 c5 1d c1 b8 9d 18 c1
       -9.860812 -9.538506
